Exam/Data/B_0.0_Th_4.5_60.npz (npz, 1466 bytes, 2 tensors)

arr_0 f8 [60]
0	0x3ff0000000000000	1.0
1	0x3fef1a98933937bd	0.9719965815981976
2	0x3fee45bb589f9e4f	0.9460121851852338
3	0x3fed0625f3d19ad6	0.9070005189977006
4	0x3fecaf4448d625bc	0.896394865282836
5	0x3febcb6bbf071544	0.8685816508301873
6	0x3feaca0de73b1db9	0.8371648327092124
7	0x3fe842078fe1dff8	0.7580602464868198
8	0x3fe8c58be2b4ca4e	0.7741145542007162
9	0x3fe6ebe06ec5a0b0	0.7162935412898346
10	0x3fe53f607c64fde5	0.6639864377574979
11	0x3fe4f1841eef9c78	0.6544819454401383
12	0x3fe5d291ffa6a065	0.6819543831998202
13	0x3fe41f59e546a82c	0.628827045254416
14	0x3fe1f82923cc6b08	0.5615430545034039
15	0x3fe02d11603bb7ba	0.5055014495426271
16	0x3fe0e0ee7ffe1cbc	0.5274574756484962
17	0x3fd71c0ef0a7378a	0.36108754636085705
18	0x3fcf3c2b159d873a	0.2440236907523799
19	0x3fb1d9cd3ff2893b	0.06972964106765726
20	0x3fb95de8fa213ca8	0.09908920389829012
21	0xbf937b57aaefa67f	-0.01902520161448828
22	0xbf88036b3eee737f	-0.011725271089568555
23	0xbf8dbc2f49f796e3	-0.014519090122984085
24	0xbfa33c19e6d87bee	-0.037567910603904284
25	0x3fa78d0af1ffdd3f	0.045997945824576274
26	0xbf9616f07af05507	-0.021571881774510106
27	0x3f67ad442891113c	0.002890236970900654
28	0xbfa710f9b782f003	-0.04505138745432193
29	0x3fa4349b17a3fa09	0.039463850627715465
30	0xbf7cb7ea78c95d1d	-0.007011333375508214
31	0x3f86f668f35aca70	0.011212177206606472
32	0xbf9462fd8a2dd9b2	-0.019908868368895667
33	0x3f787df8a7ca1e22	0.005979510603203704
34	0xbf771f7b9d659874	-0.005645258779941032
35	0x3f4b47818baf6fc5	0.0008324987933252473
36	0xbf507f2a03626f35	-0.0010068807874068057
37	0x3f57d86e7d951dda	0.0014554099091855705
38	0x3f579469ae1e1369	0.0014391929657630814
39	0xbf727905ced1721e	-0.004509947478336799
40	0xbf72d4da17e5091b	-0.004597522666076405
41	0xbf70e7b76e898d56	-0.004127232103744069
42	0xbf767b878b9761ee	-0.005488900636429579
43	0xbf3345de9f6549af	-0.00029408154604939734
44	0x3f5a6becbd4549b2	0.0016126453311541109
45	0xbf50e7e3e46e8625	-0.0010318494330267072
46	0xbf6262de81fbf286	-0.0022444101194863423
47	0xbf7a7ec3e720f6b2	-0.006468549008841572
48	0xbf7ed71223cbc5cc	-0.007529326304152883
49	0xbf76192dfc8c68c2	-0.005395106921037564
50	0xbf58eca2699ae98c	-0.0015212617931142673
51	0xbf75b74c8f13e061	-0.005301760729018752
52	0xbf7b2b4ffa0b65bc	-0.0066331028071657215
53	0x3f713bcca152239c	0.004207419716416274
54	0x3f4a76d00f527d09	0.0008076206128357087
55	0x3f464394ffce75a3	0.0006794431243297049
56	0x3f4682ee22865e1d	0.00068699481657836
57	0xbf6b6bfe1ae56668	-0.003347393320990478
58	0x3f6a6069154c32ca	0.003219800224888968
59	0xbf6b3aadb72b666d	-0.0033238785630203467

arr_1 f8 [60]
0	0x0000000000000000	0.0
1	0x3f589edaac335edc	0.0015027175402816872
2	0x3f60faad53ea2b10	0.002072657137721541
3	0x3f6352793564b40b	0.0023586623530236265
4	0x3f7230e5f1dfcc5d	0.004441164228398878
5	0x3f790035d7b96fc2	0.00610371620458844
6	0x3f7f4def7b4f42aa	0.007642684436135619
7	0x3f9305b2a980c0e2	0.01857642325939047
8	0x3f89ea617962aca1	0.012654077069177485
9	0x3f8a0aca62d97f05	0.01271589388051054
10	0x3f9076ddaa1a8784	0.016078437335302023
11	0x3f9ee8e86ddb0b7e	0.030185348229462054
12	0x3f8afbfac757660c	0.013175925453583502
13	0x3f92163fcac76e27	0.017662998916291663
14	0x3f87bb600cfe4b20	0.011587858578229027
15	0x3f99274cd96be0dd	0.024563980837201228
16	0x3f936ca31b918435	0.018969105298655548
17	0x3f90529398fe0753	0.015940004551800623
18	0x3fa49e6a5521db49	0.04027111329280914
19	0x3f95c9d3017f5a0b	0.02127771088256662
20	0x3fa72ecded51d559	0.04527896425217177
21	0x3f9f4f90c2073d81	0.03057695564512875
22	0x3f9f4afe0ce99a70	0.030559510744206653
23	0x3fa6640a53c86bbd	0.04373199722996144
24	0x3fa076e98b98c1af	0.032157228746999215
25	0x3f9f2f10d0515b48	0.03045297881575529
26	0x3f941fec53185240	0.019653027126042
27	0x3f998c1864142c54	0.02494848357040909
28	0x3fa154e838948fcb	0.033850914866235
29	0x3f92cf75624a0ada	0.018369516491030115
30	0x3f95607989c0ed58	0.02087583449632055
31	0x3f948f7d9fef60a3	0.02007862366357983
32	0x3fa0ab9749efc85c	0.03255913522288331
33	0x3f96e195cff692be	0.022344914262833575
34	0x3f95a1e8ca30bdf3	0.021125447598192747
35	0x3f9fc2195881c2a6	0.031013866450339343
36	0x3f92d01e2beff746	0.018372031623577166
37	0x3f90d825eb946997	0.016449539664884574
38	0x3f91a43c21329543	0.017228068853588196
39	0x3f975f9ff760be51	0.02282571742415335
40	0x3f95c87f4882a49c	0.021272648621252985
41	0x3f92e1b3c35b513f	0.018439110563876367
42	0x3f92227dd3666084	0.01770969965727477
43	0x3f9158de309c0f19	0.01694056674661146
44	0x3f90476d624fcf61	0.015897473454926984
45	0x3f8f01ad69637e52	0.015139918116289373
46	0x3f8cd534754d11d5	0.014078531102890071
47	0x3f912be05109c77f	0.016768937059573382
48	0x3f92e6f9be0a5daa	0.01845922682204352
49	0x3f8fb0e7623e60f9	0.015474136052759923
50	0x3f92fca78601860e	0.018541925005029873
51	0x3f9178ad7dce0651	0.017061911395563737
52	0x3f90e43b84047525	0.016495637829497718
53	0x3f924f1e6b8915da	0.01787993937820951
54	0x3f916d1d27770e07	0.01701779893279645
55	0x3f915467dd063f9c	0.016923544755229267
56	0x3f91b53b0d1f3069	0.017292902637379735
57	0x3f90eff42bf4abd1	0.016540351088376874
58	0x3f90dc31ac89b729	0.016464973598366548
59	0x3f93d0e52b37cbe6	0.01935155941277946
